assets/models/price_prediction.tflite (tflite, 19952 bytes, 4 tensors)

arith.constant f4 [1, 16]
-0.48812878 -0.2596751 0.4523772 -0.381716 -0.18166092 0.4076165 -0.5618043 -0.011813939
0.37147987 -0.31531096 0.5370635 -0.4511338 0.2637419 -0.056073844 -0.061822116 -0.5798808
00000000: 04ec f9be 22f4 84be fc9d e73e 4870 c3be
00000010: 5205 3abe 1cb3 d03e 68d2 0fbf 408f 41bc
00000020: 9c32 be3e 7070 a1be fe7c 093f 02fb e6be
00000030: 2e09 873e b0ad 65bd 3039 7dbd 1173 14bf

arith.constant1 f4 [16, 32]
-0.274106 0.2602214 0.14059523 0.23495188 -0.13688369 -0.13435335 0.1617246 0.004202366
-0.024972588 -0.30113113 0.097277105 -0.14661372 0.25184062 0.031774074 -0.19574353 -0.30004165
-0.019372553 0.29762533 -0.15449534 0.055625677 0.19515577 0.1870617 -0.13068187 -0.34304324
0.0014904737 -0.3051902 -0.19200864 0.23198399 -0.23932388 0.12929422 -0.045600206 0.09872773
0.2898498 -0.22043906 -0.06605971 0.22068104 0.27409223 0.06333044 -0.2644156 -0.1298343
0.32935175 -0.24767596 0.08611125 0.076761216 0.2447404 0.10580948 0.12599725 -0.022867858
-0.1757076 -0.12707376 0.3012409 0.20404729 -0.34362206 0.16871962 -0.30518222 -0.13616508
0.006560147 -0.03888476 -0.2681727 0.25349042 0.2391257 -0.19278094 0.34439126 0.028613508
-0.08293599 0.08362195 -0.081727296 -0.16206703 -0.22259656 -0.17742087 -0.33449307 -0.101067126
0.30806962 -0.17321284 0.057908744 -0.35246718 0.06472954 0.21957985 0.03114459 -0.01663369
-0.16032265 -0.14357972 -0.21508893 0.3383182 -0.23017532 0.26098523 0.2405363 -0.12581745
-0.17600043 0.26042834 -0.15720302 0.039761662 -0.33101225 -0.04697174 0.3160996 0.14864168
-0.1793619 0.15042791 0.3260788 0.35318735 -0.056955636 0.303125 -0.07271293 0.18592587
-0.33791968 -0.31307977 0.25026402 0.2576671 0.0037433207 0.15432808 -0.14251138 0.1549314
0.12634909 0.25692704 -0.024793565 0.12801751 -0.08954999 0.2557517 -0.34485883 -0.13370776
-0.0077755153 -0.3176194 -0.23408258 0.31024924 -0.34896594 -0.31146646 -0.26047477 0.21459034
0.20111057 -0.24173325 0.09495112 -0.18894044 -0.1339222 0.22389546 0.00754866 0.16739795
0.059656173 -0.02943486 -0.3413974 -0.3102808 0.07892856 -0.30788296 0.351123 0.34931383
-0.0795815 0.2817227 0.073943526 -0.16541567 -0.101126134 -0.069393605 -0.23682036 -0.15465347
-0.06913617 0.08020225 -0.08492631 -0.071181566 -0.022480696 0.25463316 -0.21587446 0.13588566
0.3081121 0.18903139 -0.20021658 -0.060393065 -0.1297435 0.07470089 -0.06642234 -0.11842421
-0.11502448 -0.053142548 -0.19784717 0.15411857 -0.089211226 -0.16437271 0.13367766 0.2839338
-0.06895366 -0.032975346 0.26639554 0.24667397 -0.2374351 0.3000516 0.24015114 0.22976312
-0.1183669 0.27782032 -0.20021717 -0.2822593 0.2556782 0.106425166 0.16633591 -0.0498524
0.20712867 0.15341535 0.18070093 -0.20013069 -0.038903654 -0.109577 -0.3260105 0.2742413
-0.19845535 -0.12676618 -0.32524252 0.0066907406 0.017644942 -0.083985776 0.030526876 0.0479106
-0.13587427 0.071599394 0.07100859 0.17298761 -0.26743558 0.18704829 -0.24902524 -0.09602317
0.1733953 -0.18989094 -0.20852213 -0.13149597 0.3474436 0.12613413 0.13555709 0.05177647
0.11833891 -0.039470196 -0.12456097 -0.1584338 -0.07533851 -0.30245227 -0.16239163 -0.3013456
-0.043409646 -0.016327769 -0.26733112 -0.012432218 0.23600009 0.24909958 -0.053192258 -0.20890464
-0.15758428 -0.23552763 -0.3141557 -0.33244297 0.3251283 0.18573609 -0.2427076 -0.25971502
0.13147473 -0.103851095 0.30247864 0.20125505 0.17515174 -0.05124426 -0.15639246 -0.16889253
00000000: 9f57 8cbe bd3b 853e 32f8 0f3e 3a97 703e
00000010: 3d2b 0cbe ed93 09be 229b 253e 00b4 893b
00000020: 5093 ccbc dc2d 9abe 3839 c73d e821 16be
00000030: 41f1 803e 8825 023d fe70 48be 0f9f 99be
00000040: 30b3 9ebc 5962 983e 0734 1ebe c0d7 633d
00000050: ead6 473e 1a8d 3f3e 78d1 05be 5da3 afbe
00000060: 005c c33a e441 9cbe ea9d 44be 368d 6d3e
00000070: 5211 75be b465 043e 48c7 3abd c431 ca3d
00000080: 3167 943e c7ba 61be 504a 87bd 36fa 613e
00000090: d155 8c3e 64b3 813d 7b61 87be 48f3 04be
000000a0: cba0 a83e c49e 7dbe 185b b03d fc34 9d3d
000000b0: 3a9d 7a3e a4b2 d83d 6c05 013e 6055 bbbc
000000c0: b1ec 33be a01f 02be 3f3c 9a3e c6f1 503e
000000d0: 3bef afbe d6c4 2c3e d840 9cbe dc6e 0bbe
000000e0: 80f6 d63b a045 1fbd ef4d 89be 7fc9 813e
000000f0: 5edd 743e 5e68 45be 0d54 b03e e066 ea3c
00000100: 58da a9bd fc41 ab3d a460 a7bd e6f4 25be
00000110: 5af0 63be d1ad 35be ad42 abbe 48fc cebd
00000120: 4dbb 9d3e b55e 31be b831 6d3d 9476 b4be
00000130: ec90 843d 8ad9 603e f022 ff3c 6043 88bc
00000140: 9f2b 24be 9006 13be 4640 5cbe 0b38 ad3e
00000150: 14b3 6bbe db9f 853e 264f 763e 4ad6 00be
00000160: 7539 34be dd56 853e d4f9 20be 20dd 223d
00000170: 707a a9be 7065 40bd cfd7 a13e 8635 183e
00000180: a5aa 37be c609 1a3e cdf3 a63e f9d4 b43e
00000190: 504a 69bd 3333 9b3e 84ea 94bd 5a63 3e3e
000001a0: cf03 adbe fe4b a0be 9b22 803e f1ec 833e
000001b0: 8052 753b 2e08 1e3e 81ee 11be 56a6 1e3e
000001c0: a861 013e f18b 833e e01b cbbc 0617 033e
000001d0: fc65 b7bd e3f1 823e 5691 b0be b0ea 08be
000001e0: c0c9 febb 039f a2be 58b3 6fbe fdd8 9e3e
000001f0: aaab b2be 8878 9fbe f35c 85be 92bd 5b3e
00000200: eeef 4d3e ec88 77be bc75 c23d 9a79 41be
00000210: e722 09be da44 653e c05a f73b 5e6a 2b3e
00000220: 085a 743d 6021 f1bc a4cb aebe 20dd 9ebe
00000230: 4ca5 a13d d6a2 9dbe 65c6 b33e 43d9 b23e
00000240: a0fb a2bd f53d 903e b46f 973d ba62 29be
00000250: 381b cfbd 3c1e 8ebd 0981 72be 7b5d 1ebe
00000260: 4497 8dbd 1441 a43d d8ed adbd a4c7 91bd
00000270: 7029 b8bc 475f 823e 320e 5dbe 9c25 0b3e
00000280: dfc0 9d3e 7291 413e 9305 4dbe b85e 77bd
00000290: 7bdb 04be c8fc 983d 7008 88bd 6488 f2bd
000002a0: f491 ebbd 00ac 59bd 7398 4abe 42d1 1d3e
000002b0: 60b4 b6bd 5251 28be cce2 083e c55f 913e
000002c0: 9437 8dbd 2811 07bd ff64 883e 1a98 7c3e
000002d0: 3022 73be 5da0 993e 2eea 753e 0647 6b3e
000002e0: 586a f2bd 773e 8e3e bb05 4dbe 4a84 90be
000002f0: 41e8 823e 70f5 d93d f653 2a3e 0832 4cbd
00000300: 8a19 543e ea18 1d3e aa09 393e 0fef 4cbe
00000310: 7059 1fbd e869 e0bd d9ea a6be 5b69 8c3e
00000320: e137 4bbe fece 01be 3086 a6be 003e db3b
00000330: 208c 903c bc00 acbd 8013 fa3c e83d 443d
00000340: a022 0bbe b4a2 923d f46c 913d aa23 313e
00000350: 51ed 88be 9689 3f3e 7900 7fbe cca7 c4bd
00000360: 8a8e 313e c572 42be d386 55be e1a6 06be
00000370: 21e4 b13e 4e29 013e 7acf 0a3e 9013 543d
00000380: ac5b f23d 80ab 21bd d219 ffbd 783c 22be
00000390: 144b 9abd 06db 9abe fe49 26be f849 9abe
000003a0: 50ce 31bd d0c1 85bc a0df 88be 80b0 4bbc
000003b0: 02aa 713e f613 7f3e 20e0 59bd 19eb 55be
000003c0: c65d 21be 282e 71be 04d9 a0be f735 aabe
000003d0: 3777 a63e 9a31 3e3e 5788 78be 5ef9 84be
000003e0: 50a1 063e e2af d4bd 7bde 9a3e ce15 4e3e
000003f0: fa5a 333e 80e5 51bd 5825 20be 2af2 2cbe

arith.constant2 f4 [32, 64]
-0.21111894 -0.17465538 -0.018899202 -0.14835286 -0.2050547 0.20225209 -0.097476006 -0.15228814
0.13508368 0.10138619 0.20115125 0.008441508 -0.21974152 -0.10682255 0.14587492 0.19864613
-0.07546759 0.09245181 0.15883368 -0.022464812 -0.21175504 -0.15625226 -0.046333075 0.1725285
0.21281618 -0.057903886 -0.031823456 -0.17649877 0.16708273 0.24503899 0.06646359 -0.24103773
-0.062915206 0.0609169 -0.030056894 -0.038485587 0.10442728 -0.014569163 -0.12880266 0.24736333
-0.14975584 -0.08933568 0.18648648 0.121343434 0.03519118 0.13466042 0.18065113 0.11318129
-0.055254996 0.13206851 -0.03504157 -0.07435101 0.07084286 0.0006276369 -0.053644955 0.19953173
-0.062123954 0.025220037 0.04179609 0.15239 -0.19299644 -0.04878354 0.23718679 -0.16425699
-0.049804807 0.07409829 0.2053209 -0.22607762 -0.0375095 -0.2065273 0.022895753 0.061663926
0.12900996 -0.19250274 0.16142732 0.1846183 -0.14576691 -0.21339583 -0.22407532 -0.20558286
0.2214396 -0.038303554 -0.06046945 -0.060459793 -0.10185617 -0.07780087 -0.0061559677 0.23409235
0.032847703 -0.09970504 -0.053975523 -0.101996064 0.1403405 -0.19194555 -0.1872347 0.110382795
0.11858404 0.103271425 -0.20553571 -0.0079597235 0.14813721 0.1275205 0.0578959 -0.112169445
-0.1619196 0.24784029 -0.026571512 0.21370226 -0.10815859 -0.20181245 -0.2105611 -0.006093323
-0.15298891 0.13182652 -0.12969178 0.056429565 -0.23873723 -0.011263728 0.045107424 -0.12306452
0.1709758 0.08137953 0.048261583 0.24937695 0.21969849 0.057967126 -0.20564842 0.03237319
0.03738141 0.050370514 -0.08475423 0.11501557 0.10942483 -0.23623079 0.148233 -0.22230858
-0.18014777 -0.051436484 -0.23545581 0.17050338 0.15145165 0.2426328 -0.05067581 0.043896377
0.039187253 -0.07680994 -0.09818512 0.033643007 0.16139781 -0.09540087 -0.19593519 0.044232666
0.2188794 0.20452422 -0.038659155 -0.052394807 -0.09866166 -0.22243094 -0.030964673 0.15193409
-0.16885126 -0.019703984 0.052054703 0.2132988 0.11231995 0.17143905 -0.15666038 -0.21592885
0.24147809 -0.10324603 -0.2313044 -0.09986222 0.012474179 0.23321092 0.1680364 -0.11399275
-0.06518918 -0.027889788 0.030110538 -0.03175652 -0.2002061 0.17925555 -0.020818532 0.063836515
0.022766232 0.021315217 0.16360629 -0.1411938 0.060162306 0.13393438 0.2107544 0.14112312
-0.13832104 -0.14096767 0.031909645 0.1837622 0.2062766 0.14072186 -0.16688633 -0.16356945
0.09500682 -0.0011349916 -0.16738337 -0.14543092 -0.17948192 0.047226787 -0.09539628 0.10520518
-0.14752781 0.22310263 -0.23350424 0.008196354 0.023638546 -0.0085737705 0.027160823 0.2491644
0.139041 -0.07044381 -0.0063316226 -0.19477499 0.13349384 -0.076969504 -0.2251277 -0.011096299
0.12588918 -0.108078 -0.20696408 -0.24223477 0.09542191 -0.17099214 0.15753764 -0.03517407
0.19998759 -0.1415028 0.11212987 0.09905654 -0.12657368 0.1897561 -0.028156102 -0.1521402
0.06752157 -0.113274455 -0.0022602081 0.16969484 0.2171014 -0.013214767 -0.11499107 -0.09945321
0.16754621 -0.1327824 0.17188501 0.17801362 0.026745975 -0.13160872 0.12626535 0.11665887
00000000: 902f 58be dcd8 32be 80d2 9abc d0e9 17be
00000010: dcf9 51be 2c1b 4f3e 80a1 c7bd 6cf1 1bbe
00000020: 6053 0a3e 90a3 cf3d 98fa 4d3e 404e 0a3c
00000030: ec03 61be c8c5 dabd 3c60 153e e469 4b3e
00000040: c08e 9abd 6057 bd3d 4ca5 223e 2008 b8bc
00000050: 50d6 58be 9800 20be c0c7 3dbd 50ab 303e
00000060: 7cec 593e a02c 6dbd 5059 02bd 18bc 34be
00000070: bc17 2b3e 80eb 7a3e 101e 883d 98d2 76be
00000080: b0d9 80bd 0084 793d e039 f6bc 10a3 1dbd
00000090: f8dd d53d 80b3 6ebc d8e4 03be d04c 7d3e
000000a0: 9859 19be a0f5 b6bd 50f6 3e3e e882 f83d
000000b0: a024 103d 6ce4 093e 9cfc 383e 98cb e73d
000000c0: 1053 62bd f83c 073e c087 0fbd 5845 98bd
000000d0: 1016 913d 0088 243a d0ba 5bbd 0c52 4c3e
000000e0: b075 7ebd 409a ce3c 6032 2b3d 200c 1c3e
000000f0: dca0 45be 40d1 47bd 18e1 723e fc32 28be
00000100: 2000 4cbd d8c0 973d a43f 523e e480 67be
00000110: 90a3 19bd e47b 53be e08f bb3c 5093 7c3d
00000120: 301b 043e 701f 45be 344d 253e 940c 3d3e
00000130: ec43 15be 7084 5abe 0074 65be 5084 52be
00000140: 10c1 623e 30e4 1cbd d0ae 77bd b0a4 77bd
00000150: f899 d0bd 1056 9fbd 00b8 c9bb e8b5 6f3e
00000160: 508b 063d 2832 ccbd 7015 5dbd 50e3 d0bd
00000170: 6cb5 0f3e 608d 44be 74ba 3fbe 6010 e23d
00000180: 30dc f23d f87f d33d f477 52be 8069 02bc
00000190: 48b1 173e bc94 023e 4024 6d3d 18b9 e5bd
000001a0: 40ce 25be d8c9 7d3e 80ac d9bc c4d4 5a3e
000001b0: 4082 ddbd eca7 4ebe 549d 57be 80aa c7bb
000001c0: 20a9 1cbe 88fd 063e eccd 04be b022 673d
000001d0: 8877 74be 808b 38bc 90c2 383d 4009 fcbd
000001e0: 4814 2f3e 50aa a63d f0ad 453d ac5c 7f3e
000001f0: a4f8 603e f06e 6d3d 8095 52be c099 043d
00000200: 401d 193d 5051 4e3d a093 adbd 488d eb3d
00000210: 201a e03d 7ce6 71be 64ca 173e dca4 63be
00000220: a878 38be 10af 52bd 541b 71be 7098 2e3e
00000230: 2416 1b3e bc74 783e 7091 4fbd b0cc 333d
00000240: d082 203d 884e 9dbd 4815 c9bd 40cd 093d
00000250: 7845 253e 8861 c3bd 3ca3 48be 502d 353d
00000260: ec21 603e cc6e 513e 1059 1ebd f09b 56bd
00000270: 200f cabd f0c4 63be a0a9 fdbc 9c94 1b3e
00000280: 58e7 2cbe 406a a1bc 5037 553d 006b 5a3e
00000290: 0008 e63d b88d 2f3e 946b 20be 741c 5dbe
000002a0: 0846 773e a872 d3bd 10db 6cbe 9084 ccbd
000002b0: 8060 4c3c d8ce 6e3e bc11 2c3e 0875 e9bd
000002c0: e881 85bd 2079 e4bc 60aa f63c 2013 02bd
000002d0: d402 4dbe c48e 373e a08b aabc b8bc 823d
000002e0: 4080 ba3c 409d ae3c 6888 273e 1c95 10be
000002f0: c06c 763d 1826 093e 00d0 573e 9482 103e
00000300: 08a4 0dbe d459 10be b0b3 023d 282c 3c3e
00000310: 2c3a 533e 6419 103e 40e4 2abe c07e 27be
00000320: f092 c23d 00c4 94ba 8c66 2bbe d8eb 14be
00000330: 1cca 37be e070 413d 205f c3bd d075 d73d
00000340: 8811 17be 0475 643e bc1b 6fbe 004a 063c
00000350: a0a5 c13c 0079 0cbc 6080 de3c f424 7f3e
00000360: c460 0e3e d844 90bd 8079 cfbb 1873 47be
00000370: 9cb2 083e 30a2 9dbd e087 66be 40cd 35bc
00000380: 18e9 003e 0058 ddbd 64ee 53be 640c 78be
00000390: 906c c33d 9018 2fbe 8c51 213e b012 10bd
000003a0: 8cc9 4c3e 1ce6 10be 58a4 e53d 28de ca3d
000003b0: 889c 01be 6c4f 423e a0a7 e6bc a4ca 1bbe
000003c0: c048 8a3d 70fc e7bd 0020 14bb 7cc4 2d3e
000003d0: d44f 5e3e c082 58bc 7080 ebbd 20ae cbbd
000003e0: 3c91 2b3e 1cf8 07be a002 303e 3449 363e
000003f0: 601a db3c 70c4 06be b44b 013e d8ea ee3d

sequential_1/dense_1/MatMul f4 [64, 30]
-0.15470546 -0.017546445 -0.12868154 -0.001599133 -0.08870205 0.025948673 -0.08534832 0.17956686
0.06574538 0.24146223 -0.21238677 -0.20937511 0.092932194 -0.056923777 -0.1374487 -0.06564285
-0.16166356 0.10710463 0.11703408 -0.043015853 0.06381935 -0.15423359 -0.052615985 0.24408445
-0.046117127 -0.104682684 -0.036500245 0.059991032 0.23394382 0.17665237 0.2113426 0.209214
-0.06766556 0.2484487 0.2016756 -0.1832158 0.20585802 -0.09024817 0.09584692 -0.0022723079
-0.09155257 -0.23620975 0.24404788 0.00830099 0.15735686 -0.15732518 0.08255744 0.18120247
0.067761034 -0.059985906 -0.23798525 0.130231 0.16298512 0.24474722 0.01368019 0.002090603
-0.2260434 0.21552798 0.018687546 0.0061328113 0.05239907 -0.21138006 -0.2262994 -0.15463217
-0.21911103 0.1888031 0.009799868 -0.07881917 -0.23428264 -0.015861064 -0.04631476 0.055458307
0.07554129 -0.19538774 0.091044426 0.038446337 0.15252718 -0.01211226 -0.09562798 -0.17716418
-0.22177127 -0.18392253 0.035344034 -0.2194151 0.13884622 0.23531681 0.04419303 0.22206226
0.037383646 0.010630339 -0.097594246 -0.11970648 0.016008109 -0.1853627 0.14086097 -0.23558776
-0.17507878 0.18036065 0.026943177 0.24940446 -0.23831172 0.24944612 -0.15674534 -0.10640885
-0.10883832 0.22763729 0.01908654 0.11087543 -0.06609817 0.0851711 -0.0340174 -0.17544445
0.20758373 0.25134012 0.13343906 -0.22974257 -0.17767581 -0.1534248 0.11045557 -0.04188463
-0.17495999 -0.21891063 0.19607845 0.05955565 -0.07502343 0.23020747 0.2134124 -0.08732265
0.16958451 -0.0790533 -0.05747807 0.13395828 0.1515674 -0.03772308 0.24931774 0.25261202
-0.06861095 0.027684987 -0.1645421 0.23987731 -0.13090599 0.19175965 -0.20594797 -0.061887592
-0.24865915 -0.23376262 0.10758987 0.07923508 0.04613623 0.20474404 0.0051060915 -0.22057614
-0.070245385 0.057549626 -0.06682359 0.10776925 -0.17915677 -0.0132110715 -0.049427718 0.1901313
0.026406825 -0.021787077 -0.021695286 0.15801582 -0.033712074 -0.02335532 0.17871085 -0.11110625
0.07060975 0.24855694 -0.18918759 -0.05414927 0.22982818 0.101992816 -0.048611596 -0.16570367
-0.24905616 -0.10526721 -0.003264457 0.010849595 0.093603045 0.0975534 -0.07438433 0.16873357
-0.11638744 -0.06122242 -0.18289883 0.0023669004 -0.02055563 -0.07160646 0.13924503 0.24845812
-0.014408067 0.14388502 -0.025015458 0.11358318 -0.2012734 0.06769946 -0.008425251 -0.17268103
-0.21658137 -0.1433388 0.043637782 -0.05196315 -0.20819469 -0.20457816 0.14786226 0.23750842
-0.15928432 -0.09293558 0.023569763 0.013686746 0.19250241 -0.13771349 0.18088776 -0.11434083
-0.09605853 0.112784296 0.07043511 -0.112814456 -0.036056668 0.07705438 -0.20398888 -0.12426883
-0.15677041 0.19185892 0.07824072 -0.059385896 -0.06865835 -0.22743912 0.10302243 0.021423876
-0.19984606 -0.17331629 -0.06229599 -0.035301864 -0.036538005 0.047435015 0.12073824 -0.2440562
-0.070731714 0.20015344 0.2254875 0.0671182 -0.20260864 -0.19234784 0.22369704 -0.17853254
-0.12179375 -0.0575801 -0.09811461 0.12514296 0.09524006 -0.025514215 -0.10822718 0.24451566
00000000: 1c6b 1ebe 90bd 8fbc 18c5 03be 009a d1ba
00000010: 6ca9 b5bd 5092 d43c 1acb aebd 60e0 373e
00000020: 84a5 863d e041 773e eb7b 59be 6e66 56be
00000030: 3c53 be3d e828 69bd 5abf 0cbe c26f 86bd
00000040: 228b 25be ac59 db3d 90af ef3d 6431 30bd
00000050: b8b3 823d 69ef 1dbe dc83 57bd 46f1 793e
00000060: 50e5 3cbd e063 d6bd 4881 15bd 28b9 753d
00000070: f88e 6f3e 5ce4 343e 326a 583e 323c 563e
00000080: 3e94 8abd 5669 7e3e 0c84 4e3e ec9c 3bbe
00000090: 72cc 523e 08d4 b8bd 644b c43d 00eb 14bb
000000a0: ea7f bbbd f8e0 71be b0e7 793e e000 083c
000000b0: 2822 213e da19 21be e013 a93d 248d 393e
000000c0: 4cc6 8a3d c8b3 75bd 68b2 73be 465b 053e
000000d0: 92e5 263e 049f 7a3e e022 603c 8002 093b
000000e0: ec77 67be 5eb3 5c3e a016 993c c0f5 c83b
000000f0: 68a0 563d 0474 58be 08bb 67be e557 1ebe
00000100: a45e 60be 9a55 413e a08f 203c f26b a1bd
00000110: cae7 6fbe 10ef 81bc 8cb4 3dbd 4028 633d
00000120: 64b5 9a3d b913 48be 8075 ba3d e879 1d3d
00000130: 1630 1c3e 8072 46bc 9ad8 c3bd 876a 35be
00000140: 0218 63be 3056 3cbe e8c4 103d 5aae 60be
00000150: b42d 0e3e e4f6 703e c003 353d 4a64 633e
00000160: 981f 193d e02a 2e3c 7edf c7bd ac28 f5bd
00000170: 7023 833c b8cf 3dbe dc3d 103e eb3d 71be
00000180: da47 33be 76b0 383e f0b7 dc3c e263 7f3e
00000190: fd07 74be ce6e 7f3e da81 20be e2ec d9bd
000001a0: a0e6 debd c019 693e 605b 9c3c a812 e33d
000001b0: 7a5e 87bd 306e ae3d d455 0bbd b6a7 33be
000001c0: d490 543e a7af 803e 40a4 083e a341 6bbe
000001d0: a6f0 35be 641b 1dbe 8836 e23d 388f 2bbd
000001e0: b628 33be 1c2a 60be cac8 483e a0f0 733d
000001f0: e2a5 99bd 82bb 6b3e c888 5a3e 38d6 b2bd
00000200: 90a7 2d3e b2e6 a1bd 206e 6bbd 5c2c 093e
00000210: 7c34 1b3e 8483 1abd 264d 7f3e 5d56 813e
00000220: e683 8cbd a0cb e23c b97d 28be 66a2 753e
00000230: 380c 06be a45c 443e 06e4 52be d87d 7dbd
00000240: 81a0 7ebe 785f 6fbe 1458 dc3d 0046 a23d
00000250: 58f9 3c3d 6ca8 513e 0051 a73b b6de 61be
00000260: d0dc 8fbd 28b9 6b3d ceda 88bd 20b6 dc3d
00000270: df74 37be 4073 58bc b874 4abd c8b1 423e
00000280: 2053 d83c d07a b2bc 50ba b1bc e6ce 213e
00000290: ac15 0abd a853 bfbc faff 363e ac8b e3bd
000002a0: d89b 903d b685 7e3e 64ba 41be a0cb 5dbd
000002b0: 1458 6b3e 9ce1 d03d f41c 47bd 39ae 29be
000002c0: 9408 7fbe 5696 d7bd 80f0 55bb 80c2 313c
000002d0: f4b2 bf3d 14ca c73d d056 98bd 7ec8 2c3e
000002e0: 8a5c eebd 5cc4 7abd d549 3bbe 001e 1b3b
000002f0: 4864 a8bc 68a6 92bd 4096 0e3e ce6b 7e3e
00000300: d00f 6cbc 9856 133e 38ed ccbc 4c9e e83d
00000310: 9d1a 4ebe 04a6 8a3d 100a 0abc 4cd3 30be
00000320: 82c7 5dbe 68c7 12be 88bd 323d 50d7 54bd
00000330: fd30 55be f07c 51be 3469 173e 6835 733e
00000340: 6e1b 23be 0255 bebd 6015 c13c 603e 603c
00000350: 5a1f 453e c404 0dbe a43a 393e 862b eabd
00000360: 56ba c4bd 74fb e63d 4840 903d 440b e7bd
00000370: 28b0 13bd b0ce 9d3d 76e2 50be a880 febd
00000380: 6c88 20be aa76 443e ac3c a03d a03e 73bd
00000390: c09c 8cbd cde5 68be 6cfd d23d 2081 af3c
000003a0: 72a4 4cbe d379 31be 142a 7fbd b098 10bd
000003b0: e0a8 15bd 384b 423d 9c45 f73d dee9 79be
000003c0: cadb 90bd 06f5 4c3e 32e6 663e 4475 893d
000003d0: a478 4fbe d5f6 44be d610 653e 3cd1 36be
000003e0: 006f f9bd 1cd9 6bbd 50f0 c8bd 7a25 003e
000003f0: 380d c33d 3003 d1bc 36a6 ddbd 5062 7a3e
